model.pt (torch, 13632 bytes, 4 tensors)

lins.0.weight f4 [128, 20]
-0.0034549977 -0.0934944 -0.1417242 -0.09732398 -0.18705203 0.30553958 0.090394266 -0.18909685
0.126365 0.15446056 0.11177128 -0.20277253 0.08344366 0.10434123 -0.093935765 -0.055721316
-0.039725102 -0.14116403 -0.10377776 0.2534578 -0.07557374 -0.025930803 -0.04330319 -0.09140592
0.039463513 -0.107379146 0.27689362 0.025870444 -0.07935686 0.15562458 0.07153104 0.07240044
-0.15286994 -0.14295562 -0.024733048 0.057915114 0.025959644 -0.00600528 -0.007463762 -0.038637932
-0.16224535 -0.29003412 -0.103419274 0.10414276 -0.056461688 -0.17359544 -0.051458538 -0.008872592
0.09583036 0.080703214 -0.060499944 0.007835756 0.1167207 -0.22284952 0.11287105 0.003602521
-0.18701974 -0.00801497 0.03336358 0.08667339 -0.11557697 0.25706398 0.08310671 -0.12538625
0.24365184 0.16349325 0.15586825 0.13292325 0.21185502 0.15595004 0.09170292 0.16037585
-0.122592434 0.26168245 -0.14387926 0.23382728 0.1079256 0.03219123 -0.16114217 0.03496111
-0.12713611 0.15131068 0.036404762 0.13535608 -0.17636153 -0.25048277 0.027930632 -0.1252566
0.07387931 0.0019506518 -0.12515979 -0.21014982 -0.21265253 -0.21711257 -0.12621745 0.12316132
-0.019965407 0.00033826116 -0.051108733 0.032984074 -0.01167674 -0.16777433 0.14835931 0.11973242
-0.024065025 0.017547617 -0.15849355 -0.110714175 0.07813996 0.18216853 -0.063914336 -0.008323335
0.24832028 0.07664389 -0.26409334 0.054348227 -0.2325286 0.24591704 -0.18639745 0.070330486
-0.050053727 0.06614867 -0.18337724 -0.007309923 -0.2821048 -0.11923428 -0.1509447 0.030295884
-0.20639193 -0.13240984 0.08868394 -0.10521589 0.071182646 0.13230276 0.1283131 0.13679059
-0.06950329 -0.02599346 -0.018394904 -0.025818849 -0.08395754 -0.14768171 0.13471928 -0.117996365
0.1092522 -0.16445678 0.057459246 -0.07715867 -0.07623893 0.0030953102 0.06785811 -0.20606437
0.16358252 -0.08904755 0.017501492 -0.11905058 -0.19597001 0.09565267 -0.28053463 -0.05668082
-0.18918532 0.09003457 -0.012204807 -0.235337 0.15547517 0.16091742 0.050558515 -6.704071e-05
-0.03114062 -0.17966971 -0.17681456 -0.29274008 0.09787592 -0.23478538 0.08874782 -0.08276517
-0.049198665 0.039382868 -0.10188346 -0.021563664 -0.05162942 -0.00071887503 -0.24538717 -0.026362455
-0.20278981 -0.082796596 -0.11313861 -0.030645872 -0.004223871 0.08425826 0.094336584 -0.19299047
0.09531661 -0.13884303 0.13460656 0.04944269 0.11116722 0.28071487 0.23908481 -0.26290074
-0.053808227 -0.22325043 -0.31539887 0.001611042 -0.24434218 -0.086953476 -0.01165321 0.08548128
0.14107524 -0.0862644 0.12853673 0.1316928 -0.153266 0.0025965448 -0.22555986 0.09188588
-0.23949431 0.14777505 0.17038713 -0.06761373 -0.17929474 0.16867857 -0.017587345 -0.017071307
0.12636967 0.18122576 -0.18254696 -0.054747187 0.17513566 0.014036713 -0.35693297 0.08938703
-0.15278149 -0.1101226 0.15778466 -0.14886467 -0.01456662 0.0541217 -0.094910875 0.02914799
0.040353995 -0.00043926213 -0.11506156 -0.12173721 0.09756476 -0.07085337 0.12336424 -0.16235308
0.0044553713 0.22212648 -0.34315118 -0.19288145 -0.11118836 0.08506095 0.036404338 -0.18730971
00000000: 3e6d 62bb fe79 bfbd 2620 11be cb51 c7bd
00000010: 918a 3fbe af6f 9c3e a120 b93d 9ba2 41be
00000020: d465 013e e92a 1e3e 57e8 e43d 9aa3 4fbe
00000030: 82e4 aa3d dbb0 d53d 6561 c0bd 093c 64bd
00000040: cab6 22bd 4e8d 10be 6f89 d4bd 39c5 813e
00000050: 68c6 9abd d66c d4bc b05e 31bd 0733 bbbd
00000060: 7ea4 213d 99e9 dbbd 00c5 8d3e 41ee d33c
00000070: d985 a2bd 0d5c 1f3e de7e 923d af46 943d
00000080: f089 1cbe f562 12be f69c cabc 6638 6d3d
00000090: 52a9 d43c f1c7 c4bb 9392 f4bb cf42 1ebd
000000a0: a523 26be 5a7f 94be 7ccd d3bd cd48 d53d
000000b0: 5f44 67bd 01c3 31be 30c6 52bd 595e 11bc
000000c0: b542 c43d ba47 a53d cace 77bd 8b61 003c
000000d0: 430b ef3d aa32 64be f028 e73d 4618 6c3b
000000e0: 1a82 3fbe 3951 03bc 40a8 083d d181 b13d
000000f0: 9eb3 ecbd e49d 833e da33 aa3d 4165 00be
00000100: de7f 793e c66a 273e ed9b 1f3e 081d 083e
00000110: 86f0 583e 5eb1 1f3e bece bb3d 9139 243e
00000120: be11 fbbd 3efb 853e 1655 13be 6b70 6f3e
00000130: 1908 dd3d f4da 033d 7402 25be 6233 0f3d
00000140: f82f 02be 30f1 1a3e 291d 153d c99a 0a3e
00000150: 1e98 34be 473f 80be c8ce e43c 4443 00be
00000160: 094e 973d 03ad ff3a e329 00be 8431 57be
00000170: 96c1 59be c252 5ebe 263f 01be 013c fc3d
00000180: 7e8e a3bc a558 b139 6457 51bd 4f1a 073d
00000190: cc4f 3fbc 09cd 2bbe 81eb 173e 4536 f53d
000001a0: 0424 c5bc 05c0 8f3c 224c 22be 1dbe e2bd
000001b0: d807 a03d 638a 3a3e 85e5 82bd 995e 08bc
000001c0: ac47 7e3e 79f7 9c3d 3e37 87be 3f9c 5e3d
000001d0: fa1b 6ebe add1 7b3e f9de 3ebe 6e09 903d
000001e0: 2305 4dbd f478 873d 3ec7 3bbe 1488 efbb
000001f0: 0a70 90be 1a31 f4bd 3f91 1abe 132f f83c
00000200: 6858 53be 7296 07be ed9f b53d 6e7b d7bd
00000210: 35c8 913d 607a 073e 8264 033e d512 0c3e
00000220: be57 8ebd 3df0 d4bc e9b0 96bc 0d82 d3bc
00000230: eef1 abbd e039 17be daf3 093e 14a8 f1bd
00000240: 9ebf df3d 5c67 28be 635a 6b3d 5d05 9ebd
00000250: 2823 9cbd b0da 4a3b 31f9 8a3d 8a02 53be
00000260: 2d82 273e 905e b6bd 4a5f 8f3c cad0 f3bd
00000270: 5dac 48be 8ce5 c33d 3ca2 8fbe 262a 68bd
00000280: ccb9 41be 0b64 b83d acf6 47bc 2ffc 70be
00000290: e234 1f3e 89c7 243e 7216 4f3d 3598 8cb8
000002a0: 9d1a ffbc 56fb 37be e00e 35be 07e2 95be
000002b0: 2c73 c83d 946b 70be 6bc1 b53d c980 a9bd
000002c0: 8a84 49bd ee4f 213d 47a8 d0bd 48a6 b0bc
000002d0: 5f79 53bd e372 3cba c646 7bbe 13f6 d7bc
000002e0: 22a8 4fbe 4391 a9bd 37b5 e7bd 0d0d fbbc
000002f0: 6668 8abb 988f ac3d 8a33 c13d 4b9f 45be
00000300: 5b35 c33d de2c 0ebe 4dd6 093e 6b84 4a3d
00000310: a4ab e33d dcb9 8f3e a6d2 743e ed9a 86be
00000320: 0466 5cbd c39b 64be f67b a1be 9929 d33a
00000330: d634 7abe aa14 b2bd 1bed 3ebc cf10 af3d
00000340: 0776 103e 64ab b0bd 229f 033e 7ada 063e
00000350: c3f1 1cbe cb2a 2a3b 2af9 66be aa2e bc3d
00000360: ff3d 75be 5852 173e f779 2e3e 1179 8abd
00000370: 0a99 37be 13ba 2c3e 5613 90bc 20d9 8bbc
00000380: 0d67 013e 3f93 393e 97ed 3abe 963e 60bd
00000390: c356 333e 3efa 653c ebbf b6be 8c10 b73d
000003a0: c072 1cbe f587 e1bd 4d92 213e fb6f 18be
000003b0: d5a8 6ebc b7ae 5d3d a260 c2bd c4c7 ee3c
000003c0: 3b4a 253d c44c e6b9 65a5 ebbd 5c51 f9bd
000003d0: 08d0 c73d 921b 91bd 64a6 fc3d e33f 26be
000003e0: 5dfe 913b 2075 633e 83b1 afbe b782 45be
000003f0: b9b6 e3bd 6f34 ae3d b71c 153d 1ece 3fbe

lins.0.bias f4 [128]
0.19720088 -0.19769205 -0.24609177 0.12677614 -0.099152915 0.13024543 -0.032377183 -0.10450774
-0.02740849 0.23834471 -0.006337045 -0.1511291 -0.112083375 -0.12276034 -0.21886083 -0.059143588
-0.06817843 0.007830015 0.11435118 0.029925928 -0.15595749 0.1517444 0.22573425 -0.0987079
-0.12072545 0.13506356 -0.12195507 -0.2859227 -0.24392623 0.16065378 0.013551105 0.1632236
-0.14919634 0.21665955 0.12569064 -0.31277353 -0.21071577 -0.1413505 -0.08068648 -0.054234196
-0.3115912 0.034103226 0.2415329 0.056844477 -0.1061805 -0.13582508 0.014287562 0.008446269
-0.2163751 -0.13321838 -0.16705701 -0.25051457 -0.14976037 -0.19495146 0.22017337 -0.15802997
-0.04234093 0.10918397 -0.29220024 0.019198317 0.24785957 -0.113001585 -0.055546694 0.09554273
0.045325287 0.038971305 -0.06398191 0.026110345 0.25537744 0.0076367804 -0.22400795 0.06775771
-0.021431034 -0.101746924 -0.14538074 -0.07975265 -0.18933438 -0.06905047 0.2547744 -0.099318035
-0.017099021 -0.29507905 -0.16858828 0.29213917 0.008933939 -0.09549685 0.15783924 0.18978755
-0.084211856 -0.22873582 0.07848161 -0.04168319 0.20198269 -0.13702498 0.18241504 0.16509809
-0.06498122 0.038380343 0.037766717 0.07199746 -0.15110026 -0.29228482 -0.11272418 0.063391484
-0.31482023 -0.22210422 0.04626361 -0.22264792 -0.15971297 -0.33333743 -0.047400963 -0.004389758
-0.13231236 0.14347684 0.0468051 0.034137715 0.09389775 0.06615586 -0.27006927 -0.15781668
0.15735321 -0.10334852 -0.16488712 -0.078615695 0.037336465 -0.08971447 0.053459253 0.08300626
00000000: 07ef 493e c96f 4abe 7bff 7bbe 9bd1 013e
00000010: af10 cbbd 0f5f 053e f09d 04bd 2708 d6bd
00000020: c587 e0bc a310 743e fda6 cfbb 96c1 1abe
00000030: f88b e5bd c669 fbbd 0e1d 60be 8c40 72bd
00000040: 22a1 8bbd 7749 003c f430 ea3d 3827 f53c
00000050: 52b3 1fbe e262 1b3e e126 673e 5e27 cabd
00000060: e83e f7bd 1a4e 0a3e 94c3 f9bd 7664 92be
00000070: ccc7 79be 6d82 243e 7405 5e3c 1624 273e
00000080: edc6 18be 00dc 5d3e 0cb5 003e da23 a0be
00000090: e0c5 57be 2fbe 10be f43e a5bd ad24 5ebd
000000a0: e288 9fbe d3af 0b3d 6754 773e c1d5 683d
000000b0: 2975 d9bd bb15 0bbe 6116 6a3c 3862 0a3c
000000c0: 6f91 5dbe 666a 08be fe10 2bbe 7243 80be
000000d0: c85a 19be 5ba1 47be 2175 613e 9cd2 21be
000000e0: af6d 2dbd d89b df3d 459b 95be ca45 9d3c
000000f0: e6ce 7d3e 606d e7bd ee84 63bd e8ab c33d
00000100: 02a7 393d 60a0 1f3d f308 83bd 5de5 d53c
00000110: d5c0 823e f53d fa3b 5762 65be 8ec4 8a3d
00000120: 2390 afbc b160 d0bd b0de 14be 5b55 a3bd
00000130: dfe0 41be 556a 8dbd ca71 823e 4167 cbbd
00000140: 3f13 8cbc 9a14 97be 68a2 2cbe 4493 953e
00000150: a85f 123c da93 c3bd 9ca0 213e ab57 423e
00000160: 4477 acbd b939 6abe f7ba a03d febb 2abd
00000170: 8dd4 4e3e 4750 0cbe 02cb 3a3e 790f 293e
00000180: e014 85bd b534 1d3d 46b1 1a3d 6873 933d
00000190: 07ba 1abe 5ba6 95be efdb e6bd 65d3 813d
000001a0: 1e30 a1be 4a6f 63be e97e 3d3d d1fd 63be
000001b0: cc8b 23be 34ab aabe 8327 42bd f6d7 8fbb
000001c0: e47c 07be 98eb 123e b4b6 3f3d fdd3 0b3d
000001d0: 774d c03d b97c 873d 8546 8abe b29a 21be
000001e0: 3321 213e 64a8 d3bd 2bd8 28be 4401 a1bd
000001f0: 1fee 183d 38bc b7bd 17f8 5a3d 30ff a93d

lins.1.weight f4 [2, 128]
0.016654676 0.038127605 0.08765375 0.119470954 -0.020600678 0.09414493 0.07537517 0.047101166
0.093029596 0.094726965 0.09192621 0.111959636 0.10580604 0.06977914 0.04321415 0.073715545
0.047617994 0.035092514 -0.014879709 0.048253573 0.09774655 0.11875142 0.11143471 0.062955745
-0.037659954 0.12941368 0.040814422 0.07298845 0.08668843 0.1001268 0.092303626 0.09576795
0.04667742 0.06250082 -0.0027220096 0.0089460015 0.103803866 -0.025637675 0.1034896 0.05370812
0.018881118 0.03533022 0.12299117 0.00054613093 0.05816688 -0.005243675 0.13348463 0.03412863
0.06280009 0.13160859 0.09921316 -0.008232254 0.014447928 0.07854762 0.009999765 0.06739745
0.08189343 0.025624456 0.046009954 0.055243302 0.08394975 0.083606236 0.0901847 0.054296475
0.077807 -0.008400031 0.032345973 0.12833942 0.09097352 -0.01931902 0.1050071 0.06313758
0.030919874 0.12081055 -0.04303714 0.047542337 0.0654698 0.09402483 0.10686256 0.03957382
-0.0076794913 0.0020031866 0.095726304 0.08720615 0.060770012 0.13555631 0.072606474 0.048998434
0.08364353 0.037942212 0.13504146 0.04788958 0.111664586 0.09817231 0.13852875 0.14928517
0.100095704 0.087816715 0.09195997 0.1284469 0.06937018 0.009973959 0.02878039 0.08624588
0.080637805 0.06801993 -0.0077199647 0.03494108 0.11091934 -0.0003076087 0.035865046 0.013656674
0.103495464 0.03554035 0.036491383 0.00076602714 0.1129202 0.057902448 0.0511241 -0.003448753
0.067725986 0.12175987 0.04174414 0.08583916 0.11952354 0.12989472 0.033049483 0.012456931
-0.12559286 -0.08541457 -0.0059852763 -0.0561561 -0.00292305 -0.04544591 -0.027204065 -0.07197844
-0.054469626 -0.06549464 0.032178808 -0.011124503 -0.010039173 -0.03340647 0.0003340637 -0.0051335297
-0.024448773 -0.07152884 -0.06785425 -0.0897866 -0.026002696 -0.05955545 -0.14678365 -0.017657923
-0.057914454 -0.15337254 -0.088886835 -0.049893476 0.011490408 -0.10625864 -0.047697943 -0.04894514
0.010635978 -0.124779865 -0.03603639 -0.119955905 0.008622754 -0.10087378 -0.017116463 -0.07513418
0.009364208 -0.11177958 -0.049720503 -0.11208645 -0.0599241 -0.043568384 -0.0014227437 -0.075170316
-0.056527045 -0.027542025 -0.05010708 -0.07702154 0.017479066 -0.03434665 -0.11485229 0.009372543
-0.09150737 -0.11661376 -0.019132908 -0.06551308 -0.11749763 -0.041371677 -0.08504694 -0.12969379
-0.032608517 -0.08644029 0.019909946 -0.10599637 -0.091894485 -0.11319655 0.013547627 -0.049442865
-0.0078022596 -0.008253224 -0.09152084 -0.10594571 -0.026404165 -0.09568958 -0.07776383 -0.048718754
-0.076171026 -0.05862053 0.011300254 -0.09062846 -0.1058285 -0.009337338 -0.11175149 -0.11576983
-0.009653849 -0.056763515 -0.036352474 -0.068968266 -0.020064548 0.0009396977 -0.06200376 0.0005265946
-0.07958065 -0.024900107 -0.09028449 0.024572553 -0.016212104 -0.12763949 -0.100581184 -0.09971589
0.019803053 -0.057961226 -0.062092163 -0.016028563 -0.0935575 -0.123248465 -0.04670273 -0.10272739
-3.185285e-05 -0.11412977 -0.1031384 -0.14411336 0.009610201 -0.005418087 -0.07075487 -0.053748094
-0.13324153 -0.02000979 -0.11025503 -0.006253223 -0.10656848 -0.005438846 -0.1114484 -0.10932728
00000000: 636f 883c b12b 1c3d cf83 b33d 30ad f43d
00000010: c1c2 a8bc 0fcf c03d 4c5e 9a3d 27ed 403d
00000020: 4d86 be3d 3600 c23d cf43 bc3d 184b e53d
00000030: d6b0 d83d 5ee8 8e3d 5201 313d 2df8 963d
00000040: 160b 433d 2bbd 0f3d 06ca 73bc 8aa5 453d
00000050: 582f c83d f233 f33d e237 e43d f1ee 803d
00000060: 5341 1abd 0585 043e 062d 273d f87a 953d
00000070: b489 b13d 480f cd3d af09 bd3d fd21 c43d
00000080: d330 3f3d 6e00 803d be63 32bb 4092 123c
00000090: 1f97 d43d 1a06 d2bc 5bf2 d33d 0cfd 5b3d
000000a0: 93ac 9a3c 6cb6 103d cbe2 fb3d 3a2a 0f3a
000000b0: 6540 6e3d 22d3 abbb 32b0 083e 76ca 0b3d
000000c0: 559d 803d 67c4 063e 4530 cb3d 93e0 06bc
000000d0: 01b7 6c3c 93dd a03d 0ed6 233c ad07 8a3d
000000e0: beb7 a73d 61ea d13c ef74 3c3d cd46 623d
000000f0: d9ed ab3d bf39 ab3d c2b2 b83d fb65 5e3d
00000100: 4759 9f3d 49a0 09bc 367d 043d 696b 033e
00000110: 5350 ba3d ec42 9ebc f60d d73d 474e 813d
00000120: ad4b fd3c 866b f73d b647 30bd c1bb 423d
00000130: 0815 863d 1790 c03d c2da da3d 2818 223d
00000140: 3ea4 fbbb e547 033b 270c c43d 2399 b23d
00000150: fae9 783d 46cf 0a3e b4b2 943d 95b2 483d
00000160: 4d4d ab3d 4b69 1b3d 4f48 0a3e dd27 443d
00000170: 67b0 e43d 900e c93d 7bda 0d3e 36de 183e
00000180: fafe cc3d 40d9 b33d 8255 bc3d 9687 033e
00000190: f411 8e3d d169 233c dac4 eb3c aea1 b03d
000001a0: 6f25 a53d 084e 8b3d c2f7 fcbb 611e 0f3d
000001b0: ae29 e33d 8a46 a1b9 3ae7 123d 3ec0 5f3c
000001c0: 6ef5 d33d c292 113d fd77 153d 36cf 483a
000001d0: b542 e73d 1e2b 6d3d 8167 513d 7904 62bb
000001e0: ecb3 8a3d 3d5d f93d e7fb 2a3d 71cc af3d
000001f0: c2c8 f43d 1f03 053e e55e 073d 2818 4c3c
00000200: 6a9b 00be d6ed aebd 2320 c4bb f003 66bd
00000210: a490 3fbb 7e25 3abd 0fdb debc 6f69 93bd
00000220: 8b1b 5fbd 0e22 86bd edcd 033d 8c43 36bc
00000230: 587b 24bc 39d5 08bd 4525 af39 2b37 a8bb
00000240: cb48 c8bc b67d 92bd 2bf7 8abd 09e2 b7bd
00000250: 9b03 d5bc 6af0 73bd 744e 16be 59a7 90bc
00000260: b537 6dbd b10d 1dbe 4d0a b6bd 1a5d 4cbd
00000270: 4442 3c3c 219e d9bd eb5e 43bd b37a 48bd
00000280: 8642 2e3c 968c ffbd e59a 13bd 71ab f5bd
00000290: 7446 0d3c ea96 cebd d337 8cbc f3df 99bd
000002a0: 566c 193c b1ec e4bd baa7 4bbd 958d e5bd
000002b0: f972 75bd c374 32bd 5b7b baba e5f2 99bd
000002c0: e788 67bd d09f e1bc 153d 4dbd 78bd 9dbd
000002d0: 4230 8f3c 13af 0cbd ad37 ebbd 4b8f 193c
000002e0: 3768 bbbd 32d3 eebd 9ebc 9cbc b92b 86bd
000002f0: 99a2 f0bd 5975 29bd 172d aebd 73ce 04be
00000300: 8290 05bd 9b07 b1bd 2f1a a33c a014 d9bd
00000310: 2d33 bcbd 98d3 e7bd def6 5d3c 9a84 4abd
00000320: 19aa ffbb 8838 07bc 476f bbbd 10fa d8bd
00000330: 8c4d d8bc e6f8 c3bd a542 9fbd 518d 47bd
00000340: 8eff 9bbd 151c 70bd b324 393c 6a9b b9bd
00000350: 9dbc d8bd a2fb 18bc f7dd e4bd bc18 edbd
00000360: 2d2b 1ebc dc80 68bd 55e6 14bd 3c3f 8dbd
00000370: 685e a4bc 0c56 763a a8f7 7dbd 2a0b 0a3a
00000380: 2efb a2bd 4ffb cbbc 13e7 b8bd 614c c93c
00000390: 3fcf 84bc edb3 02be 82fd cdbd d837 ccbd
000003a0: 033a a23c c068 6dbd 5a54 7ebd 554e 83bc
000003b0: 139b bfbd b169 fcbd 5d4b 3fbd bd62 d2bd
000003c0: bd99 05b8 debc e9bd 3a3a d3bd 7492 13be
000003d0: 1b74 1d3c 358a b1bb eee7 90bd f626 5cbd
000003e0: 7870 08be 92eb a3bc 64cd e1bd d6e7 ccbb
000003f0: 9340 dabd 5938 b2bb 0f3f e4bd fbe6 dfbd

lins.1.bias f4 [2]
0.028053535 0.0074906643
00000000: 87d0 e53c 3f74 f53b
